models/policy2.pt (torch, 795101 bytes, 4 tensors)

net.0.weight f4 [256, 768]
000000 bb 25 be bc 1f 18 30 3c 16 c5 b4 bc 5b 2a 1c bc
       -0.02321135 0.010747938 -0.022066634 -0.009531583
000010 45 0d 41 bc db e4 12 bc 4b b6 36 bb 4c 84 c6 3c
       -0.011782949 -0.008965696 -0.0027879651 0.024233006
000020 cd bd 40 3d 59 67 9b bc 3b 74 33 3c 10 84 87 bc
       0.047056008 -0.018970178 0.0109530045 -0.016542464
000030 43 f9 58 bc 9b 38 9f bc 53 a3 8e bc 75 fd bf bb
       -0.013243022 -0.019436171 -0.017411863 -0.005859072
000040 0f ab a0 bc 56 d6 fe bc 1b 82 99 bc eb f6 8c 3c
       -0.019612817 -0.031108063 -0.018738797 0.017207583
000050 76 10 e2 bb 07 83 5b bc 5d e8 88 3b 44 ab 41 bd
       -0.006898935 -0.013397939 0.0041780905 -0.047282472
000060 90 5e 06 3d 9c 3d f2 bc 4f a6 b9 bc 27 8c 5c 3c
       0.032805026 -0.029570393 -0.02266231 0.013461149
000070 47 a9 f3 3c ee a4 8b 3c 82 70 d1 3c 7f f1 9f 3c
       0.029743804 0.017046418 0.025566343 0.019524334
000080 0f d8 62 bc 4e 85 c5 bc 9a 06 dd bc df 98 fa 3c
       -0.013845458 -0.024111416 -0.026980687 0.030590473
000090 77 1c dc 3c a3 30 bc bc 3d 28 a4 bc 9d 24 a7 ba
       0.026869042 -0.02297241 -0.020038718 -0.0012752
0000a0 6d a9 78 bb 10 12 52 3c 34 13 ca bc 49 00 c2 3c
       -0.0037942783 0.012821689 -0.02466736 0.023681777
0000b0 07 3c 46 3d de 75 45 3d 7f 98 6e 3c d1 01 3e 3d
       0.04839709 0.04820811 0.014562725 0.04638845
0000c0 82 cf b3 3c 31 31 fd bb 23 1b 2b 3d c7 c2 09 3d
       0.021949533 -0.0077268113 0.041773926 0.03363302
0000d0 1a 37 65 3c 7e 52 27 3d 98 2d db 3c d9 c2 06 3d
       0.013990188 0.040850155 0.02675514 0.032900665
0000e0 dd ea f1 3b a4 5c 25 bd b3 bc 63 bc 76 e8 fc ba
       0.007382734 -0.040371552 -0.01389997 -0.0019295353
0000f0 24 42 b9 3c e3 f8 68 3c 03 65 e8 3c 93 12 4d bb
       0.022614546 0.0142194955 0.028368479 -0.0031291589
000100 ed 31 21 3d 87 52 61 3c 8f 77 ab 3b 06 6a 0b 3c
       0.039354254 0.013752586 0.0052327584 0.008509165
000110 cd 7c 96 3c 30 86 a3 3c bd 06 8f 3c d1 31 8b 3c
       0.018370057 0.019961447 0.017459268 0.016991528
000120 62 10 1a bc 69 b6 0e 3d b4 48 a5 bc c2 e2 e3 ba
       -0.00940332 0.03484193 -0.02017627 -0.0017386305
000130 10 f0 ac bc 39 bd 23 3d 3d cf 51 bc 04 8b 10 3d
       -0.021110564 0.03997538 -0.012805757 0.035288826
000140 46 db 7b bc bd b1 1f 3d e9 b4 4c 3d 69 00 06 3d
       -0.015372103 0.038987864 0.049977217 0.032715235
000150 5b c7 60 3c 8b ef 04 3d 35 d8 0f 3c 21 33 77 bc
       0.013719405 0.03245501 0.008779575 -0.015087874
000160 7f fc 3b 3c c7 dd 0e 3d b2 2c 8b bc 92 af 39 bc
       0.011473774 0.034879472 -0.016989086 -0.011333363
000170 0c c2 92 3c cb ef 07 3c 45 c5 3d bd 96 af 1f bd
       0.017914794 0.008296917 -0.04633071 -0.03898581
000180 69 38 a6 bc 02 93 bf bc f8 0d 06 3d 28 53 07 bd
       -0.02029057 -0.023385528 0.032728165 -0.03303829
000190 b8 bf 8d bc a4 4a 74 bc 7b 85 8c bb c8 8b cb bc
       -0.017303333 -0.014910374 -0.004288373 -0.024846926
0001a0 c4 9a a8 bc ba ff a8 3a ca 99 ba 3c 75 6c 2b 3d
       -0.02058161 0.0012893595 0.02277841 0.04185148
0001b0 d9 7e 39 3b 89 8a 94 bc d0 47 bd bc 0e 3d a5 3c
       0.0028304367 -0.018132465 -0.023105532 0.020170715
0001c0 e2 a7 7b b9 a9 ab 18 3d 9d 7e 6f 3b 2d 41 7a 39
       -0.00023999767 0.037273083 0.0036543973 0.00023866138
0001d0 5b ca 4d 3c 08 b6 0e bd 54 14 a9 bc 33 af 7f bc
       0.012560452 -0.034841567 -0.020639576 -0.015605736
0001e0 30 50 e2 3c a0 2c 88 bc 8f 67 fa bc 99 ec 98 bc
       0.027626127 -0.016622841 -0.030566959 -0.018667506
0001f0 23 b1 3d 3b 07 30 0e 3d 3a d7 8a bc a5 67 8d 3c
       0.0028944693 0.03471377 -0.016948331 0.017261336
000200 36 e1 be 3c 1e 9e 51 bc 68 78 df bb 32 51 4b bc
       0.023300748 -0.012794046 -0.0068197735 -0.012409495
000210 21 2f 82 bc 39 ec f4 3b d4 92 b1 3c e4 55 11 3c
       -0.015891613 0.007474449 0.021676458 0.008870576
000220 40 e8 db 3c 88 45 90 3c e4 65 c8 3c cc 86 ec bb
       0.026844144 0.01761128 0.024462648 -0.0072182175
000230 80 fc 28 3d 40 6a cb bc 75 5b 0b 3d 82 0e a9 3c
       0.041256428 -0.024830937 0.034022767 0.0206368
000240 7f 0b 16 3d 30 61 97 bc 1e 7b d6 3c 0b 60 fb bb
       0.036632057 -0.01847896 0.026181754 -0.0076713613
000250 ff 1b 94 bc ad 79 40 3d 8e e6 a5 3c d2 c6 8f 3c
       -0.018079756 0.04699104 0.020251539 0.01755086
000260 08 96 15 3d 63 30 b3 bc 3d ff a5 bc 87 da 68 3c
       0.036520034 -0.021873659 -0.020263309 0.014212257
000270 33 78 a5 3c 01 83 0f 3d 2f 9c 4e 3c 6b 52 f0 3c
       0.020198917 0.035037044 0.012610479 0.029336175
000280 e1 df f9 bc 6c 35 19 bc c2 54 1c bd e1 69 6f 3c
       -0.030502262 -0.009351116 -0.03816677 0.014612646
000290 f9 1b 15 3b a9 ec 10 bd 01 f2 8a bc 5e 09 d4 3c
       0.0022752269 -0.035381947 -0.0169611 0.025883373
0002a0 bf df 45 bd 10 ba 0a bd e8 7f e3 3b a8 a8 ab 3c
       -0.048309084 -0.03386885 0.006942738 0.020954445
0002b0 70 b8 b3 3c 7b e2 0b 3c f8 b8 10 bc ec 28 98 3c
       0.021938533 0.008537884 -0.0088331625 0.0185742
0002c0 9b 3c 7c 3b 0f 27 0a 3c 28 3e 5c 3b 9d 37 f7 bc
       0.0038488272 0.008432164 0.0033606384 -0.030177886
0002d0 a7 03 a4 3b 9a 3a 17 bd 31 14 ef 3b 39 1c c4 3c
       0.005005318 -0.03692112 0.007296108 0.023939239
0002e0 d5 0f 26 bd 93 6d 8c 3c 6b 75 53 3a a1 a6 ab 3b
       -0.040542442 0.017142093 0.0008066508 0.0052383696
0002f0 f8 f3 e2 3c af e4 92 3c e2 b0 86 3b 0b aa 0a 3c
       0.027704224 0.01793131 0.0041104415 0.008463393
000300 e7 ee 0c 3c a4 4c 11 bb 05 6f ac 3c aa 26 e7 bc
       0.008601881 -0.0022170926 0.021049032 -0.028216679
000310 8a 05 8f bc c5 74 78 3b ec 79 26 3c 2c 9c f2 ba
       -0.017458696 0.0037911397 0.010160904 -0.0018509678
000320 4d a6 2a 3d a7 f6 a0 3b d1 4e b3 bc 8d c5 29 3c
       0.041662503 0.0049122158 -0.021888169 0.010362041
000330 94 d9 0a bd 4e 41 80 3c d0 2a 37 3c 3c 89 07 3d
       -0.033898905 0.01565614 0.011179641 0.03308986
000340 4a 62 7d bc 88 fa ae bc 53 12 eb bc 61 49 32 bd
       -0.0154653285 -0.021359697 -0.028695261 -0.04352701
000350 a8 69 ee 3b 25 9f 2a bd 93 0c 04 3a fa 63 fd bb
       0.007275779 -0.04165568 0.0005037274 -0.0077328654
000360 44 ec 07 3c fb 16 1d bd cb ad 91 bb 12 14 b1 3c
       0.008296076 -0.038351994 -0.0044457666 0.021616016
000370 2f 60 19 bc e5 ae bd 3b 63 4b 80 bc a1 ee aa 3c
       -0.009361311 0.0057886713 -0.015660947 0.02086574
000380 2a 3b 2c 3b 62 f1 58 bc 3e d7 d4 bc 01 67 1d bd
       0.0026280382 -0.013241144 -0.025981542 -0.03842831
000390 c1 b0 11 bc 2d ee 5b b8 f3 30 9a bb 05 f2 19 3b
       -0.008892239 -5.2435487e-05 -0.0047055422 0.0023490202
0003a0 b6 e9 83 bc 73 0b 15 3d 45 da c0 bc 90 62 fc bc
       -0.016102653 0.036387872 -0.023541579 -0.030808717
0003b0 f5 75 71 bc c6 35 2a bc a7 5f 3b bd 78 71 b8 3c
       -0.014737596 -0.010388797 -0.045745518 0.022515044
0003c0 8c 35 88 bc ff de c4 3c cb b3 3e bc 5b f0 dc 3c
       -0.016627096 0.024032114 -0.011639546 0.02697008
0003d0 8c d0 93 3c 8a 2b 2c bc 20 7f df 3c 41 0b be bc
       0.018043779 -0.010508427 0.027282298 -0.023198726
0003e0 82 37 9a bc 4b 06 3b bc 1e d8 ce 3c 9d 64 98 3c
       -0.018825296 -0.011415075 0.025249537 0.018602664
0003f0 00 0e d7 3c 87 27 c2 bb 52 67 ad 3c d8 1b b4 3b
       0.026251793 -0.005925122 0.021167431 0.0054964833

net.0.bias f4 [256]
000000 fa 5d eb bb 70 68 45 3c 06 16 fa 3c 03 e2 6f bc
       -0.0071828337 0.012048826 0.03052808 -0.014641288
000010 47 9e b5 3b 4f 27 0a bd ba a9 db 3c c6 11 c2 3c
       0.00554255 -0.033728894 0.02681433 0.023690116
000020 6b a7 87 bc e0 14 e1 3c b2 5b 3f 3c 75 7b 27 3d
       -0.016559323 0.027475774 0.011679577 0.040889222
000030 6c 4e b1 bc 06 46 4a 3c 34 12 1e 3d 22 a4 cf 3c
       -0.02164384 0.012345796 0.03859158 0.02534682
000040 08 44 6f bc 8b 0a 0f bd 5b 1f 79 3c b7 0a 27 3d
       -0.014603622 -0.034922164 0.01520523 0.040781703
000050 ee 65 18 bd 40 1b 71 bc dc fc 9d bc 78 a9 d5 3c
       -0.037206583 -0.01471597 -0.019285612 0.026081786
000060 bb e4 0e bd 8b ef 9e 3b 32 f2 b0 bc bf c5 cd 3b
       -0.034886103 0.004850333 -0.021599863 0.0062796767
000070 92 cf ed bc 75 ad d6 bb 6d 79 38 bc 96 a5 5e bc
       -0.029029641 -0.0065514394 -0.011259419 -0.013589283
000080 83 d3 e2 3c fa a8 2b bc c2 12 9f bb f9 28 a9 3c
       0.027688747 -0.010477299 -0.004854531 0.02064942
000090 6d bc a6 3c 30 fe b0 3c 4f 19 f0 3c e4 2d 0d 3d
       0.02035352 0.021605581 0.029308943 0.034467593
0000a0 18 0e c4 3c db d0 30 bb 3d 61 84 3c 3f 83 95 3c
       0.023932502 -0.0026979956 0.016159648 0.01825106
0000b0 7f 3d 94 bc 49 e4 d0 3b d6 1d e7 bc e9 57 77 bc
       -0.01809573 0.00637487 -0.02821247 -0.015096643
0000c0 c5 88 db 3c 1f f5 10 3d 04 a5 7e 3c eb 46 61 bc
       0.026798615 0.035390016 0.0155422725 -0.013749818
0000d0 1d 8e 28 3c 38 af b0 3c fe 99 0b 3d 6c 5a a7 bc
       0.010287789 0.021567926 0.034082405 -0.020428859
0000e0 77 ae f4 bc ee 08 e2 3c cb 1d 9f ba 53 6a d8 bc
       -0.029868348 0.027592149 -0.0012139616 -0.026417887
0000f0 4e b5 f8 3c 8c 88 eb bb 4f e5 7e 3c be 53 ff ba
       0.03035989 -0.0071879085 0.015557601 -0.0019479913
000100 89 54 ef 3b 3d 63 93 bc 34 1a 20 bc 1a 43 95 bb
       0.0073037785 -0.017991656 -0.009771872 -0.0045551183
000110 e0 e5 4a bc 5f c7 0f 3d 72 55 cb 3c d9 f6 18 ba
       -0.012383908 0.035102244 0.024821017 -0.0005835123
000120 70 db 0c bc 17 01 0d bd 03 7b a5 3c 9b 76 d2 bc
       -0.00859724 -0.034424867 0.020200258 -0.025691321
000130 81 4d b7 3c 31 99 b6 3c 0c 94 27 3d d7 51 0e 3d
       0.022375824 0.022289844 0.040912673 0.034746017
000140 30 d2 9d bc 90 0f 85 3b ff 9d 5c 3c 27 47 14 3d
       -0.019265264 0.004060693 0.013465404 0.03620067
000150 98 34 53 3c 60 f3 d1 3c 46 68 ba bc d0 1f 7f 3c
       0.012890957 0.025628746 -0.0227548 0.01557155
000160 89 0a b3 3c 96 00 b3 bc 88 e1 18 3d 5a 5c a9 bc
       0.02185561 -0.021850865 0.03732446 -0.02067392
000170 9d 5d 13 bc fc c9 c4 3c 59 3c dd ba fd ea 16 3d
       -0.008994487 0.024022095 -0.0016878947 0.036845196
000180 83 46 e7 ba c6 0e b7 3c c6 f3 b4 bc c5 af 1d bb
       -0.0017644915 0.022345912 -0.022088896 -0.0024061066
000190 45 6a 2b bb a0 69 51 bb 5c 4d 81 3c 95 c0 35 bb
       -0.002615587 -0.0031953827 0.015783958 -0.0027733196
0001a0 a1 d0 f0 3c d7 2d 02 bd b0 a1 8e 3b 4d 65 f0 3a
       0.029396357 -0.031781998 0.0043527707 0.0018340737
0001b0 6e 8f 06 3d 96 6d b7 3c ee b7 23 3d 82 76 19 bd
       0.03285163 0.022391122 0.03997033 -0.037466533
0001c0 b2 cd f8 bc 01 98 af 3c 9f a8 2b bd 70 90 80 3c
       -0.03037152 0.021434786 -0.041908856 0.015693873
0001d0 da 2c 66 bc e7 47 f2 3c 43 cf 3a bc d8 13 b3 3b
       -0.014048779 0.029575301 -0.011401954 0.005465012
0001e0 e2 36 e0 bc 1c 14 3b 3c 73 7c 07 3d 23 f1 1a ba
       -0.02736992 0.011418369 0.03307767 -0.0005910566
0001f0 9f 76 e5 3c 48 df b4 3c 2f ac 13 3d 13 e6 05 3c
       0.028010665 0.022079125 0.03605288 0.00817253
000200 78 e4 96 bc 00 c3 0b bd 77 ab 0b 3d ec 90 0a 3d
       -0.01841949 -0.034121513 0.03409907 0.033829615
000210 51 e1 ba bc ee 2f ce bb 9b 0e ce bc a9 42 0b 3d
       -0.022812517 -0.0062923348 -0.025153449 0.03399912
000220 7b bd 45 3c 45 44 1f 3b 50 d3 71 3c e8 08 a9 bb
       0.012069101 0.0024302166 0.0147598535 -0.0051585324
000230 25 a7 8b bc 6c 18 83 bc a7 d4 ad bc 30 81 c2 bc
       -0.017047474 -0.016002856 -0.021219565 -0.023743242
000240 2a 72 6f bc cb 15 2b 3b f8 36 31 bb 29 82 f7 3c
       -0.014614621 0.002610552 -0.002704082 0.030213432
000250 ad 90 0a bc 47 a1 02 3d b8 f9 78 bc 70 d6 ee bb
       -0.008457345 0.031892087 -0.015196256 -0.0072887465
000260 73 c4 d5 3b 01 e0 b4 3c 83 b2 30 3d 65 bf 3c 3c
       0.0065236627 0.02207947 0.043138992 0.011520241
000270 57 46 8c bc 80 6c d1 bc dd 90 e0 bc d2 f2 e5 3c
       -0.017123384 -0.025564432 -0.027412826 0.028069887
000280 04 3b bb bc 34 54 c4 3c d8 6b c0 bc e5 05 cb 3c
       -0.02285529 0.023965932 -0.023488924 0.024783084
000290 d4 8b 4c 3c d6 77 3c 3d 9e ca 5f bc 5f 48 04 3d
       0.0124845095 0.046012722 -0.013659148 0.03229558
0002a0 7e 24 a1 bc e2 d7 b1 3c dd ae c3 3b d1 37 0f bc
       -0.019670721 0.021709386 0.005971773 -0.008741335
0002b0 29 b2 1c 3d 33 49 9b bc cc 27 ed 3c d0 4a 09 bc
       0.038255844 -0.018955803 0.02894964 -0.008379653
0002c0 d9 35 d2 bc 95 c3 34 bb 80 de b0 3b bb 3e 1d 3d
       -0.025660442 -0.0027582396 0.005397618 0.038389903
0002d0 8a 0a a2 3c a5 a3 16 3d 93 96 22 3b fd 33 c4 3c
       0.019780416 0.036777157 0.0024808988 0.023950571
0002e0 d4 88 13 bc 4c 4e 2c 3d b5 7f dc bc a4 d5 f5 3c
       -0.00900479 0.042066857 -0.026916364 0.030009098
0002f0 cc 60 32 3d c7 1d f8 bc 08 c6 b1 bc 82 16 df bc
       0.043549344 -0.030287636 -0.021700874 -0.027232412
000300 96 c4 11 3d 3c f0 f5 bb 01 11 19 bd e7 d7 22 3d
       0.03558787 -0.007505445 -0.03736973 0.03975668
000310 f2 b9 c6 bc 7f e3 09 bd 46 52 9b 3c 56 b2 eb bc
       -0.024258588 -0.033664223 0.01896013 -0.02877156
000320 25 7d ab bc 1e eb 57 bc 3e 07 9b bc 5a 8f 88 bc
       -0.020933697 -0.013178615 -0.018924352 -0.016669918
000330 59 8a f2 bc 74 0a 15 bc 5d f5 34 3d 82 d3 79 bc
       -0.029606985 -0.0090967305 0.04417931 -0.015248181
000340 7d 2f 46 3b b7 cc 2e bb b9 43 0e bd ae c3 0d 3d
       0.0030240708 -0.0026672313 -0.034732554 0.034610443
000350 d1 55 b7 3c ad 0d a3 b9 b2 c9 11 3d 1d f3 d7 bc
       0.022379788 -0.00031099972 0.035592742 -0.026361043
000360 95 a7 81 3c 89 a7 17 3d 4c ea dd 3c 70 9d 2c bb
       0.01582698 0.03702501 0.02708926 -0.0026338957
000370 62 e9 a5 bc 28 cf 93 bc ab 0c 87 3b fe d8 86 bc
       -0.020252887 -0.018043116 0.004121383 -0.016460892
000380 61 ed 2a bb b7 c9 c3 3c 18 6b f8 bb ab de 2f 3c
       -0.002608143 0.023899896 -0.007581126 0.0107342405
000390 70 9c a2 3a 68 58 e9 3c 8a 6e 00 bb 74 24 28 bc
       0.0012406241 0.028484538 -0.0019597136 -0.010262597
0003a0 ec 3d 80 3c da 68 c6 3c 6a f3 36 bc d4 4b d3 ba
       0.015654527 0.024219919 -0.011166433 -0.0016120621
0003b0 48 fc bd 3c 95 8c af 3c 98 e5 ba bc 68 f6 a8 3c
       0.023191586 0.02142934 -0.022814557 0.020625308
0003c0 4a 95 cc 3c c7 ac 9a 3b 2d 43 7e bb ed 05 aa bb
       0.02497353 0.0047203037 -0.0038797364 -0.0051886947
0003d0 7e 2d 0e 3d 47 c9 64 bc 84 4a 9b ba d0 cc 25 3c
       0.034711353 -0.013964004 -0.0011847769 0.010119632
0003e0 d8 28 d2 3c c1 79 95 bc d1 6f 86 3c c7 49 ea 3c
       0.025654241 -0.018246533 0.01641074 0.028599633
0003f0 4c c2 2f bc be b8 34 3c e5 cb 67 3b 21 ee 0f 3d
       -0.010727476 0.011030374 0.0035369333 0.035139207

net.2.weight f4 [5, 256]
000000 34 f9 57 3c 93 af 9b bc 59 d6 4a bc d9 d0 89 3b
       0.013181973 -0.019004619 -0.012380206 0.004205805
000010 7f 43 6d bd 9a 25 27 3d 92 22 cb 3c 44 6c fb 3c
       -0.057925697 0.040807344 0.024796758 0.030691274
000020 f8 d6 15 3c 60 96 65 bb f1 b8 54 bc bb cb b4 3c
       0.009145491 -0.0035032257 -0.012983547 0.022069803
000030 63 aa 28 bd 97 b6 3d bd 1c 36 41 3d 90 10 3a 3c
       -0.04117812 -0.04631671 0.047170743 0.011356488
000040 67 e9 84 3c 9d 17 8e bd d2 b4 1e bd 6b 31 8e bc
       0.016224576 -0.069380976 -0.038746662 -0.017357549
000050 12 9c 6a bd 18 00 24 3c 0d e6 14 bd 38 b0 72 bc
       -0.057277746 0.010009788 -0.036352206 -0.014812522
000060 a6 e2 53 3d 3b ae 14 bd 91 11 e4 ba a6 1f 5f bd
       0.05172982 -0.03629897 -0.0017400255 -0.05447354
000070 ff 92 f4 bc de a8 82 bd d0 1a 28 bd 84 0f 77 3d
       -0.02985525 -0.06379865 -0.041041195 0.06031753
000080 06 80 9e bd 64 73 b6 bc fd f2 f5 bb 03 19 7b bc
       -0.07739262 -0.02227182 -0.007505773 -0.0153257875
000090 f0 44 b1 bb 68 94 e5 bc 8f 37 83 bd 25 03 80 bd
       -0.0054098293 -0.028024867 -0.06407081 -0.062506
0000a0 be bb 08 3d 2d 31 0d 3d c2 11 80 3d 62 80 80 bc
       0.03338217 0.034470726 0.06253387 -0.015686218
0000b0 b2 42 a4 bc cd 05 03 3d f7 55 1f bd c3 45 1c bd
       -0.020051334 0.031987954 -0.03890034 -0.038152467
0000c0 52 4c dc bc 81 2f 7e bd f0 e4 0b bd ed 6c 1d 3b
       -0.026891861 -0.062057022 -0.03415388 0.0024021224
0000d0 11 e2 07 bd 7e f0 b2 3c 00 de 67 bd a0 26 30 3d
       -0.033174578 0.021843191 -0.0566082 0.043005586
0000e0 5e a2 99 bc 8b e8 41 bd 37 82 46 bb a4 0d 6f bd
       -0.01875418 -0.04734091 -0.0030290016 -0.058362618
0000f0 5e 7d 0c 3d 38 ab 62 bd d7 fc 67 3c fb c1 c8 3c
       0.034299247 -0.05533907 0.014159403 0.02450656
000100 80 e2 0a 3d c6 86 39 3d 3e 32 75 bd 22 87 51 bc
       0.033907413 0.045294546 -0.059862368 -0.012788566
000110 15 69 14 bd c0 b8 83 3d 71 8e 8e bd 49 0b e8 3c
       -0.036233027 0.06431723 -0.06960762 0.028325694
000120 54 a7 8b 3c 54 a3 9e bc df b5 87 bd 95 db 92 3d
       0.017047562 -0.01936499 -0.06626486 0.07170788
000130 e9 86 e4 bb 7e af 44 3c b8 0c 11 3b c3 ef 4a 3d
       -0.0069740904 0.012004731 0.0022132825 0.04954506
000140 49 c9 d2 3c a0 0d 0c bc 60 ad bd 3a c8 33 8f 3d
       0.025730746 -0.00854817 0.0014471225 0.06992298
000150 48 b8 83 bc 83 a9 b4 bc 8c a3 3b 3d c3 98 5d bc
       -0.016079083 -0.022053486 0.045810267 -0.013525191
000160 f5 7f 36 3b 7c 73 2b 3d 51 a2 32 bd 0e f0 5a bd
       0.0027847264 0.04185818 -0.04361183 -0.05345159
000170 29 6f 0d 3d ca ac c3 bc 5b 78 1e 3d 9b 3d 90 3d
       0.03452984 -0.023886103 0.038689 0.07043
000180 ba 0f 3b 3d dc 79 25 bd e4 4f 1d bc d1 06 08 bd
       0.045669295 -0.040399417 -0.009601567 -0.033209626
000190 47 b5 3d 3d 50 9e 4c bd d7 b4 70 bd 31 e4 49 bd
       0.046315458 -0.049955666 -0.058766212 -0.049289886
0001a0 c3 7f 77 3d 01 65 76 bc 7c 41 23 bd e0 14 55 bd
       0.060424577 -0.01503873 -0.039857373 -0.05202186
0001b0 ad 35 40 3d 0c b5 1c 3d cc 10 38 3d 33 14 18 3b
       0.04692619 0.038258597 0.044937894 0.00232054
0001c0 5a c2 5e 3d 92 0e b0 3c de 08 52 3d 92 92 05 3d
       0.054384567 0.021491323 0.051277988 0.032610483
0001d0 d0 18 ff 3b e9 4f 04 3d 94 59 17 bd 0c 76 fd 3c
       0.0077849403 0.03230277 -0.036950663 0.030940078
0001e0 c8 e9 6d bc 22 17 10 bd f2 9d 65 bd 97 3e fd 3c
       -0.01452107 -0.03517831 -0.05605883 0.030913634
0001f0 d9 cd 5b 3d f6 fc 41 3d dd d9 71 bd d2 19 a1 bc
       0.05366311 0.047360383 -0.05904566 -0.019665632
000200 1a e0 58 bd ac e4 24 bd 41 7f 27 3d 9f 97 06 3d
       -0.052948095 -0.04025714 0.040892843 0.03285944
000210 32 4d 77 bd 95 ca ab 3a c6 be 5d 3d df d7 19 3c
       -0.060376354 0.0013106639 0.054137014 0.009389847
000220 2f dc c5 3a 8a b0 2b 3d 28 f0 33 3d f0 16 ca 3b
       0.0015095527 0.041916408 0.043930203 0.006167285
000230 da 32 74 bd a2 bb 35 bd b6 33 0f 3d c0 4d 00 bd
       -0.05961881 -0.044368394 0.034961425 -0.03132415
000240 80 d3 83 3d 1a f5 fe 3a 1c 14 32 3c db b6 18 3d
       0.06436825 0.0019451708 0.010869052 0.03728376
000250 08 e3 74 bd b9 af 30 bd 07 a7 39 3d 36 7b 14 3d
       -0.059786826 -0.043136332 0.045325305 0.036250316
000260 2b 5d 4d bc ea bd 3f bd 21 02 27 3d 4a 7d 8b 3d
       -0.01253442 -0.046811976 0.040773515 0.06811006
000270 f2 1f 58 bd ca c7 52 bd bb 12 51 3d 2e d9 f0 bb
       -0.05276484 -0.051460065 0.051043253 -0.0073501086
000280 80 38 13 bb 2a 2e 85 3d 76 b9 32 3d fa 24 34 3d
       -0.0022464097 0.06502946 0.0436339 0.043980576
000290 2f c5 21 bc 20 7f 68 bd e9 27 60 bd c2 d5 3e bd
       -0.009873672 -0.05676186 -0.05472556 -0.046590574
0002a0 ab bd 24 3d 40 be 7a bd b9 2b 06 bd b2 3d 67 bb
       0.040219944 -0.061216593 -0.03275654 -0.0035284576
0002b0 35 45 80 bc ca a5 65 bd 4a 46 87 3d 32 1b 46 3d
       -0.015658 -0.056066312 0.066052034 0.04836578
0002c0 9a 84 67 bd f2 9c 84 bd 9a 5b 5d 3c b3 78 09 3d
       -0.056522943 -0.064752474 0.013510609 0.033562373
0002d0 40 c7 7d 3b 2d 15 80 bd 51 a7 23 bd 36 3c 2b bd
       0.0038723499 -0.06254039 -0.039954487 -0.04180547
0002e0 04 1b ae 3c f9 74 7e 3b 61 ce c3 3c 4c ef 87 bd
       0.021253116 0.0038827045 0.02390212 -0.06637439
0002f0 f6 f2 80 bd 35 62 2f 3d 2e c9 01 bd 52 59 57 bd
       -0.06296341 0.042818267 -0.031686 -0.052575417
000300 c4 9f 7c bd a5 d4 8f 3c 3f 24 57 bc 85 a5 ee 3c
       -0.061675802 0.017557452 -0.0131312 0.02913166
000310 a4 b8 41 bd bb 79 6d bd 94 81 1a 3d c4 64 00 3d
       -0.047295228 -0.05797742 0.03772123 0.031346098
000320 fa 5e 43 3d 72 6b 65 bd c8 1d 25 bc d6 cc 87 bd
       0.047698 -0.05601067 -0.010077901 -0.06630866
000330 c0 11 70 bc bb 47 84 bc 81 de 94 3d c9 71 be bc
       -0.014652669 -0.016147485 0.07269002 -0.023247616
000340 16 f0 3d bd ff 78 cd bb 3a a1 00 bd 64 40 01 3d
       -0.046371542 -0.0062705274 -0.031403758 0.03155555
000350 97 df 9c bc ea 0e 8e bd 60 59 30 bb c2 09 58 3d
       -0.019149585 -0.069364384 -0.002690874 0.05274368
000360 fe 78 a5 bc 4b ce 1e bd f6 56 62 3d b8 80 4c 3c
       -0.020199295 -0.038770955 0.055258714 0.012481861
000370 47 67 8e 3d 1b 24 8c 3d db c6 88 3c f8 c5 47 3a
       0.06953292 0.06842824 0.016696384 0.0007620747
000380 9b ea da 3b 54 15 fc bc c0 23 71 bd 51 24 db ba
       0.006680799 -0.030771889 -0.058871984 -0.0016719197
000390 77 92 5f bd 50 e3 8b bc 2e 96 fe bc b0 d3 8c 3c
       -0.05458304 -0.017076164 -0.03107747 0.017190784
0003a0 36 85 e6 3b 93 c3 99 bd 14 29 2d 3d b3 09 07 3d
       0.007034923 -0.07508006 0.042275503 0.032968234
0003b0 80 7d 31 bd dd df 1b 3d 00 48 7e 38 64 71 4c 3d
       -0.043332577 0.03805529 6.0625374e-05 0.049912825
0003c0 b8 d6 da 3c ac 8e ab bc cb 8c 54 bd c4 aa b9 bc
       0.026713714 -0.020942055 -0.051892083 -0.022664435
0003d0 9c 81 cc 3c 09 0a 10 bd 1e fa 0a 3d 64 cd 93 bd
       0.024964146 -0.03516582 0.033929937 -0.072169095
0003e0 d2 25 c9 bc bc 80 28 bd ba 97 40 3d cc d4 3a bc
       -0.024554167 -0.041138396 0.047019698 -0.011403274
0003f0 f8 d5 d8 3c 62 64 3b 3d 9a f0 5f 3d b7 c2 75 3d
       0.026469216 0.04575003 0.054672815 0.060000148

net.2.bias f4 [5]
000000 6c df e7 3c bb af 65 bd b8 7b 7a bd 2b d8 a3 3b
       0.028304778 -0.056075793 -0.061153144 0.0050001345
000010 5a 88 ff bc
       -0.031192947
