models/policy.pt (torch, 800211 bytes, 4 tensors)

net.0.weight f4 [256, 768]
0.014639407 -0.015421281 -0.015400884 -0.029294439 0.010904576 0.03006943 0.004617462 -0.0014979622
0.0312552 -0.024910698 -0.037493072 0.030545345 0.04235394 -0.03151899 0.0032689346 0.026952375
0.018783517 -0.020496935 0.044158276 -0.0118267 -0.002954656 -0.010136253 0.030523662 0.055107035
0.014100142 -0.023496121 0.033674873 0.008967715 -0.01975637 -0.0039928467 0.04571295 -0.0028119036
-0.0007656117 -0.047037516 0.022243012 -0.049855992 0.045736507 0.028656578 -0.0047195237 -0.017581165
-0.021846548 0.017282061 0.00042485044 -0.022387376 -0.0020912208 0.002341603 -0.0008028989 0.025614465
0.008437917 0.039065544 0.0037487822 0.001666506 0.012333535 0.02816316 -0.025445718 -0.010262694
0.01900243 0.0128605245 0.018585632 0.0015188298 0.04598316 0.007950029 0.025459427 0.0373348
-0.01080254 -0.0509732 -0.051140472 -0.0038033633 0.04562409 0.011489601 0.031334296 0.00671888
-0.033542592 0.04075305 0.027357709 0.03483045 -0.017471466 -0.038879897 -0.0165328 -0.0028418808
0.008250516 0.004565403 -0.0027734532 0.025589874 -0.00074386364 -0.009320223 -0.037140515 -0.004515568
-0.0074646035 -0.00189526 -0.014468229 0.045798548 0.027134413 -0.012376013 0.0074522067 0.0034515883
-0.033874027 0.0021782909 -0.038535133 -0.0072919633 -0.02403615 -0.05559942 -0.03747678 -0.03609222
0.021959562 -0.040334765 0.009878933 -0.012303902 0.005466575 -0.0011286068 0.017238455 0.0036437393
0.018600106 0.014752572 -0.002809808 -0.00057728856 -0.005450396 0.009128844 0.0070928787 -0.011251053
-0.022782905 0.037623122 0.022975702 0.025752157 0.005286836 -0.013829297 -0.0064858603 -0.003543763
0.009201396 0.013024575 -0.042989977 -0.04922485 -0.04949487 -0.009951312 0.015881952 -0.035150744
-0.038133185 0.012882833 0.04773869 0.039818663 0.03609246 0.028987395 -0.0022477126 -0.00061836775
-0.0016096799 -0.04037121 0.02432871 0.02580045 0.050075803 0.018171461 -0.018932039 0.02320485
-0.0002544124 0.029326022 0.025315773 0.038490463 0.018528324 -0.03673887 -0.017751632 0.05402726
0.02098213 0.0056562214 0.0138305435 0.003992466 -0.028034016 -0.0354073 -0.03217088 -0.020480173
0.048343018 -0.044566683 0.015447488 0.04531684 -0.04780596 0.0025807293 -0.026080629 -0.023636796
-0.009800499 0.011041305 0.00064494554 -0.026294852 -0.006772781 -0.025256855 0.00803681 -0.014549415
-0.021992588 -0.012089651 -0.036590345 0.026993534 -0.0033485696 -0.04360713 -0.057355184 -0.01361412
-0.034128923 -0.027136428 -0.013962959 0.0055806823 -0.005729564 -0.005559755 0.054215867 -0.021848718
0.0121928295 -0.020181205 -0.020054944 0.007772019 -0.052017514 0.041506756 -0.002571385 -0.015397368
0.020336548 -0.027695023 0.03888321 0.019149292 -0.028177163 0.0372621 -0.00047934556 -0.06506145
-0.0032781279 -0.051205285 0.029958425 0.026744764 -0.0517426 0.03296599 0.057912525 -0.04238312
-0.03882985 0.02143587 -0.0069632297 0.049190752 -0.026679931 0.018602455 -0.054455638 -0.0077489163
0.031454243 -0.005003705 -0.04185148 -0.009410024 -0.008573997 0.032281883 0.003150307 0.019966729
-0.02433526 -0.00040344635 0.012211379 -0.016283004 0.027325513 0.0031395168 0.009925281 -0.00401409
0.026862197 -0.0038243535 0.010685965 -0.0041676704 -0.0038905775 -0.0012201612 0.012183807 0.009784209
00000000: 20da 6f3c 8aa9 7cbc fd53 7cbc e4fa efbc
00000010: 1ba9 323c 2a54 f63c 144e 973b 4557 c4ba
00000020: 7405 003d 8511 ccbc 5692 19bd 3b3a fa3c
00000030: 537b 2d3d 0e1a 01bd 9f3b 563b 3acb dc3c
00000040: e4df 993c 30e9 a7bc 4fdf 343d c6c4 41bc
00000050: e7a2 41bb 8712 26bc c20c fa3c eab7 613d
00000060: 4804 673c f07a c0bc aaee 093d 53ed 123c
00000070: 1cd8 a1bc 6dd6 82bb 813d 3b3d ea47 38bb
00000080: 55b3 48ba 69aa 40bd fa36 b63c cc35 4cbd
00000090: 3456 3b3d 33c1 ea3c 3ca6 9abb 6006 90bc
000000a0: 88f7 b2bc 1c93 8d3c 76be de39 bb65 b7bc
000000b0: dd0c 09bb 9475 193b a279 52ba 6dd5 d13c
000000c0: 303f 0a3c 3103 203d 21ae 753b aa6e da3a
000000d0: 9812 4a3c 6db6 e63c 8a73 d0bc dc24 28bc
000000e0: fcaa 9b3c f3b4 523c e540 983c 7913 c73a
000000f0: d758 3c3d d740 023c 4a90 d03c 60ec 183d
00000100: 23fd 30bc 46c9 50bd ac78 51bd d941 79bb
00000110: 53e0 3a3d e13e 3c3c 6458 003d 0d2a dc3b
00000120: f563 09bd acec 263d 461d e03c 60aa 0e3d
00000130: 5220 8fbc 8740 1fbd cb6f 87bc d93e 3abb
00000140: 2c2d 073c 6099 953b d3c2 35bb dba1 d13c
00000150: d8ff 42ba d9b3 18bc a720 18bd 54f7 93bb
00000160: a299 f4bb 5f6a f8ba 270c 6dbc 4297 3b3d
00000170: fd48 de3c c3c4 4abc a431 f43b 0b34 623b
00000180: 7ebf 0abd a8c1 0e3b 04d7 1dbd 6cf1 eebb
00000190: 76e7 c4bc 38bc 63bd 4181 19bd 70d5 13bd
000001a0: 8ae4 b33c 1136 25bd 40db 213c 4e96 49bc
000001b0: f420 b33b c3ed 93ba a937 8d3c cdcb 6e3b
000001c0: 405f 983c c6b4 713c c124 38bb 2e55 17ba
000001d0: 3c99 b2bb 2691 153c 616b e83b 5656 38bc
000001e0: 37a3 babc b41a 1a3d 8a37 bc3c 30f6 d23c
000001f0: 323d ad3b 4794 62bc 5787 d4bb 7a3e 68bb
00000200: 74c1 163c 0765 553c 4216 30bd ff9f 49bd
00000210: 22bb 4abd d40a 23bc de1a 823c 3afa 0fbd
00000220: 8b31 1cbd 8512 533c a589 433d e518 233d
00000230: b0d5 133d f976 ed3c 5c4e 13bb f519 22ba
00000240: e5fb d2ba 485c 25bd 014d c73c 775b d33c
00000250: 491c 4d3d 51dc 943c 5d17 9bbc 1918 be3c
00000260: a862 85b9 203d f03c 0663 cf3c 2da8 1d3d
00000270: b6c8 973c 7f7b 16bd df6b 91bc b04b 5d3d
00000280: b7e2 ab3c d357 b93b 8199 623c 3bd3 823b
00000290: 98a7 e5bc 3f07 11bd 9dc5 03bd 09c6 a7bc
000002a0: 5403 463d 8e8b 36bd 7617 7d3c 279e 393d
000002b0: 2fd0 43bd 7421 293b 0ba7 d5bc f4a1 c1bc
000002c0: 4692 20bc 97e6 343c 9011 293a 4d68 d7bc
000002d0: 34ee ddbb 77e7 cebc d3ac 033c ab60 6ebc
000002e0: cd29 b4bc ac13 46bc c2df 15bd 8b21 dd3c
000002f0: ad73 5bbb 649d 32bd 45ed 6abd c20d 5fbc
00000300: c5ca 0bbd 374d debc e5c4 64bc 28de b63b
00000310: 11bf bbbb 9b2e b6bb 7511 5e3d 15fc b2bc
00000320: 6fc4 473c 0e53 a5bc 444a a4bc 6cac fe3b
00000330: 5110 55bd fd02 2a3d ae84 28bb 3e45 7cbc
00000340: d598 a63c ace0 e2bc 0044 1f3d fade 9c3c
00000350: cbd3 e6bc 25a0 183d ac50 fbb9 f03e 85bd
00000360: dcd5 56bb a2bc 51bd 5f6b f53c d617 db3c
00000370: 0cf0 53bd 5907 073d af35 6d3d ec99 2dbd
00000380: 0c0c 1fbd 479a af3c ce2b e4bb 3e7c 493d
00000390: df8f dabc 2d64 983c e00c 5fbd 9fea fdbb
000003a0: 2ad6 003d 1ff6 a3bb 756c 2bbd 802c 1abc
000003b0: f379 0cbc 023a 043d 6275 4e3b 4491 a33c
000003c0: bd5a c7bc a785 d3b9 3c12 483c ef63 85bc
000003d0: c1d9 df3c 5ac0 4d3b a59d 223c a188 83bb
000003e0: 1c0e dc3c 01a2 7abb 3014 2f3c f490 88bb
000003f0: 0ff9 7ebb d1ed 9fba 979e 473c f24d 203c

net.0.bias f4 [256]
-0.012266994 -0.0320822 -0.02480631 0.040397674 -0.014869812 -0.01601136 -0.038785543 -0.023575539
0.016604308 0.03810921 0.02817677 -0.010511299 0.0068393233 0.02484541 -0.030339602 0.03760827
0.027358575 -0.02631062 0.0027357293 -0.013074166 0.03772798 -0.04196084 -0.029052384 0.027363114
0.00026378626 -0.010387634 0.0004797563 -0.02787495 -0.0031035657 0.020494703 0.03615333 -0.0132202115
0.02814415 -0.01728193 0.011824396 -0.042667687 -0.014967052 -0.015193073 -0.039276183 0.0033204083
0.002110448 0.024933968 0.033092827 0.02935126 -0.03587286 0.047197275 -0.031878732 -0.005726242
-0.020499218 0.03120275 0.044180606 0.00034515874 0.03133882 -0.01704259 0.007333207 0.01336145
0.037628554 0.017798165 0.0425989 0.007187868 0.004431954 -0.02300337 -0.0053118286 -0.008999623
-0.026546648 0.0009284129 -0.008798882 0.028974932 -0.04373438 0.041463904 -0.017489718 0.034587838
0.03342804 -0.020043377 -0.0005690696 -0.00526798 -0.014451662 -0.018197274 -0.0019822726 -0.024460344
0.026884938 0.032049716 -0.003604789 -0.020439161 -0.020802414 0.009169616 -0.0043743155 0.0092715435
-1.5706053e-05 0.015741039 0.004207322 -0.008911232 0.00031243713 -0.004150546 -0.006028997 -0.0038604818
-0.023559151 0.03733845 0.035669677 0.044882298 -0.00027609323 0.03350327 0.0057302224 0.04530793
0.019668616 0.033131562 0.031211128 -0.018037869 0.0036583617 0.029981103 -0.0090187155 -0.015650425
-0.04026393 0.00085642614 0.0115998 -0.002533183 0.014366799 -0.023403235 -0.02640762 0.014397163
0.0320651 0.031049922 -0.009338143 0.04133253 0.0104593905 0.015703741 0.021412872 -0.016036281
-0.01859791 0.024381837 0.011284408 0.04485814 0.028893368 0.018721268 -0.023957938 -0.013946861
0.02460008 0.012271274 -0.014086001 -0.012139718 0.03194094 -0.006392147 0.0027019028 -0.0033082205
0.044489056 0.02363559 0.0078523625 0.02290137 0.020304874 0.019667452 0.0026810188 -0.011584386
-0.010467662 -0.016786624 0.013324707 -0.012923842 0.011480479 0.016285596 -0.023822095 0.043134972
0.0036579857 0.024939977 0.017322542 0.022579778 -0.00083108497 0.009996052 -0.024180194 -0.0020810405
-0.0021380908 -0.020677183 0.00054381543 -0.016673246 0.01471723 0.042842 0.024260128 0.0020784978
0.013471126 0.02970299 -0.01024812 -0.016397994 -0.017383007 -0.036455296 0.009449672 -0.016735483
0.04306493 -0.002310947 -0.007824205 -0.0055129854 0.028587686 -0.00091573555 0.023029577 0.029905122
-0.01256536 0.011253104 -0.022869002 -0.021328162 0.014750343 0.026096646 -0.011957546 -0.023344541
0.027076194 -0.020994158 0.013494733 -0.02609546 0.0047591073 0.029057069 -0.04170025 -0.020681633
-0.017093213 -0.024002297 -0.020955285 0.026865471 -0.0046107154 0.0010740586 -0.02125195 -0.0073023727
-0.01581576 -0.0033879024 -0.027427493 -0.01973781 0.020623932 -0.0051570805 0.0028764757 0.023026582
-0.012776061 0.028883826 0.03176329 -0.0109124975 -0.0017487451 0.008530964 0.041287396 0.009916056
0.026104558 -0.03749367 0.026295224 0.01723646 0.003956316 0.03368689 0.008315825 -0.018901475
0.03363548 0.019332288 0.030220274 -0.03745809 -0.00286518 -0.02854949 0.007299104 0.012116101
0.0011320418 -0.019340012 0.019216087 0.04149793 0.0144103775 0.019338025 0.03938329 -0.010721155
00000000: 81fb 48bc a068 03bd 9a36 cbbc 0878 253d
00000010: 83a0 73bc 412a 83bc 97dd 1ebd 7d21 c1bc
00000020: c205 883c 6718 1c3d f8d2 e63c 9537 2cbc
00000030: 671c e03b 9a88 cb3c c28a f8bc 210b 1a3d
00000040: 171f e03c 5f89 d7bc ec49 333b 0735 56bc
00000050: a888 1a3d 21df 2bbd 44ff edbc 9c28 e03c
00000060: cb4c 8a39 e530 2abc cd87 fb39 025a e4bc
00000070: 3165 4bbb 82e4 a73c 8415 143d 9699 58bc
00000080: 8f8e e63c d692 8dbc 1dbb 413c 50c4 2ebd
00000090: 5e38 75bc 5eec 78bc 10e0 20bd 359b 593b
000000a0: 714f 0a3b 5242 cc3c 588c 073d 0e72 f03c
000000b0: 6cef 12bd ee51 413d 4693 02bd 33a3 bbbb
000000c0: faed a7bc e99c ff3c b9f6 343d 6cf6 b439
000000d0: 225d 003d e79c 8bbc 664b f03b fce9 5a3c
000000e0: 6620 1a3d 75cd 913c 2f7c 2e3d 3588 eb3b
000000f0: ed39 913b 9071 bcbc d90e aebb 2873 13bc
00000100: 5b78 d9bc bc60 733a 3029 10bc d65c ed3c
00000110: d222 33bd 0ed6 293d 9946 8fbc faab 0d3d
00000120: d7eb 083d 0232 a4bc 9d2d 15ba 059f acbb
00000130: aac6 6cbc 7312 95bc 04e9 01bb 0f61 c8bc
00000140: cd3d dc3c 9046 033d 533e 6cbb 0770 a7bc
00000150: d369 aabc 283c 163c 6b56 8fbb ace7 173c
00000160: 7ec0 83b7 5af3 803c 93dd 893b 6b00 12bc
00000170: 9ace a339 4e01 88bb e48e c5bb 2300 7dbb
00000180: 1fff c0bc 34f0 183d 5e1a 123d 80d6 373d
00000190: 9bc0 90b9 ba3a 093d 97c4 bb3b cf94 393d
000001a0: 1420 a13c f6b4 073d 7bae ff3c 27c4 93bc
000001b0: 20c1 6f3b ee9a f53c 3cc3 13bc 5235 80bc
000001c0: caeb 24bd c981 603a 160d 3e3c c203 26bb
000001d0: b962 6b3c 24b8 bfbc cb54 d8bc 14e2 6b3c
000001e0: b256 033d 685c fe3c 03ff 18bc 4d4c 293d
000001f0: dd5d 2b3c 22a5 803c 0c6a af3c 855e 83bc
00000200: a55a 98bc 6bbc c73c 3de2 383c 2bbd 373d
00000210: c9b1 ec3c 585d 993c 7043 c4bc 6081 64bc
00000220: 1b86 c93c 740d 493c f8c8 66bc abe5 46bc
00000230: 81d4 023d 3775 d1bb 6812 313b bbce 58bb
00000240: 283a 363d 6d9f c13c 32a7 003c a79b bb3c
00000250: 6856 a63c a31d a13c 08b4 2f3b 70cc 3dbc
00000260: 8e80 2bbc 1a84 89bc df4f 5a3c 86be 53bc
00000270: 9e18 3c3c 5f69 853c 8e26 c3bc 4cae 303d
00000280: d1ba 6f3b ec4e cc3c 01e8 8d3c 3af9 b83c
00000290: 2bdd 59ba 7bc6 233c 8b15 c6bc 1162 08bb
000002a0: 361f 0cbb 3263 a9bc d68e 0e3a 5596 88bc
000002b0: 8920 713c 187b 2f3d 2dbd c63c 6837 083b
000002c0: ffb5 5c3c af53 f33c bbe7 27bc 1655 86bc
000002d0: cf66 8ebc 2652 15bd ccd2 1a3c da18 89bc
000002e0: da64 303d 4273 17bb 1831 00bc 46a6 b4bb
000002f0: b930 ea3c f90d 70ba 86a8 bc3c 96fb f43c
00000300: f1de 4dbc f05e 383c c657 bbbc 66b8 aebc
00000310: 6cab 713c a2c8 d53c 95e9 43bc 0d3d bfbc
00000320: e5ce dd3c f1fb abbc 0319 5d3c 25c6 d5bc
00000330: 49f2 9b3b 1709 ee3c e2cd 2abd 876c a9bc
00000340: 1107 8cbc 77a0 c4bc 6baa abbc fa14 dc3c
00000350: 7c15 97bb 6dc7 8c3a 9218 aebc be48 efbb
00000360: 0d90 81bc 9207 5ebb 9faf e0bc 30b1 a1bc
00000370: 85f3 a83c bafc a8bb 4183 3c3b 3ea2 bc3c
00000380: af52 51bc c69d ec3c 391a 023d 55ca 32bc
00000390: 2636 e5ba 75c5 0b3c f91c 293d f476 223c
000003a0: 3ad9 d53c f692 19bd 1569 d73c 7a33 8d3c
000003b0: fca3 813b 44fb 093d 193f 083c 44d7 9abc
000003c0: 5bc5 093d bf5e 9e3c 8290 f73c a76d 19bd
000003d0: bec5 3bbb 9fe0 e9bc 522d ef3b 9c82 463c
000003e0: 0561 943a f26e 9ebc 0e6b 9d3c bcf9 293d
000003f0: 8119 6c3c c76a 9e3c 5f50 213d c9a7 2fbc

net.2.weight f4 [10, 256]
0.02103135 0.05665335 -0.06833344 0.05054316 -0.0664613 -0.07398391 0.04366747 0.05231587
-0.016295081 0.06437284 0.01193721 -0.03255989 0.07453134 0.08439846 0.027498927 -0.055119842
-0.07986784 0.06162544 -0.0050244 -0.0021724075 -0.059320815 -0.0035410847 0.08896104 -0.031470984
0.028387263 0.04903831 -0.045026254 -0.030563075 -0.022718024 -0.045629457 0.020039596 0.052617494
-0.0005347572 -0.07175628 0.018588694 0.016788112 -0.07423313 0.06834604 -0.012183866 0.05203027
0.043510363 -0.06495901 -0.0062018163 -0.05533332 0.036445405 0.01700508 0.08331249 0.08405968
-0.028845394 -0.06971847 0.08034407 -0.07009621 -0.051558368 -0.028642582 0.04895239 0.034149952
-0.037572004 0.05802444 -0.0826071 0.05051142 -0.049493615 -0.006628636 0.06766745 0.007133778
-0.009345952 -0.034730405 -0.046177633 -0.05634211 0.014801824 -0.08399153 -0.013467093 0.040303558
-0.07694652 -0.041404046 0.06595892 -0.0780006 0.00868099 -0.03368891 0.011250981 -0.05267145
-0.050577093 -0.01789417 0.058331195 -0.004914891 -0.061362542 0.03321562 -0.08753393 -0.08412418
0.010987855 -0.073736 -0.090872526 0.035055533 -0.017851835 0.01852687 0.08185998 -0.09935596
-0.061490286 0.03634898 -0.04493403 -0.025789272 0.013418248 0.022992624 -0.07493135 0.002013526
0.013749712 -0.06930084 0.08863734 -0.07478599 -0.07704209 -0.03696878 -0.072065845 0.06183617
0.024674246 0.038771592 -0.044974685 -0.09426328 0.03616719 -0.052796986 -0.026253771 0.005455903
0.036621857 0.038545467 0.06601005 0.022879453 0.045174908 -0.0127634825 0.067718565 -0.023827858
0.049399808 -0.026271194 0.0035431732 -0.07098723 0.011291076 -0.05743913 -0.038973443 -0.079864815
0.041087598 0.040170617 0.0491878 0.07135587 -0.055158697 0.059362486 0.06409578 -0.006493912
-0.03396546 0.041416332 0.047783118 -0.077235416 -0.090284616 0.024006443 0.025695508 -0.025921037
-0.096758105 -0.010628636 0.01208423 0.002029941 -0.019311372 -0.022020727 -0.06520019 -0.0469608
0.07022661 -0.03149026 -0.0017793059 0.08626976 0.0648482 0.07085843 -0.07818651 -0.030207045
0.061013695 0.080744766 -0.08055679 -0.07345303 -0.077136606 0.04041268 0.0015713776 -0.06370678
-0.0012679662 0.038231965 0.016282618 -0.07092757 -0.033995014 0.02808215 0.09042484 0.034099225
-0.034853894 -0.085194856 0.07071987 -0.023097325 -0.027838895 0.003927975 -0.036927287 -0.08819299
0.05621209 0.0735119 -0.036343932 0.062064126 0.030934552 0.015939385 0.05836206 -0.07430865
0.069616936 -0.0737098 0.021338373 0.021186516 -0.051064957 -0.075659424 -0.010211278 -0.0068677217
-0.016758405 -0.07241816 -0.028597403 -0.05441917 -0.036264513 0.004140584 -0.05878372 0.070081666
-0.021942552 -0.06871166 -0.0457167 0.006822385 0.07059343 -0.054337233 -0.061655566 0.054473598
0.05145194 -0.048427634 0.052941944 0.05778503 -0.031228831 -0.04481959 0.08130444 0.059706863
-0.06515345 -0.050671697 0.045384035 -0.007410796 0.05176821 -0.042847797 -0.017473448 0.004243853
0.041020565 0.085638225 -0.036420975 -0.016367268 0.051945228 -0.0040203556 0.023020854 0.033574373
-0.08057749 -0.04946509 -0.05836681 -0.084427774 -0.09225081 0.053474564 0.003119226 0.018416928
00000000: f049 ac3c 580d 683d 67f2 8bbd 5806 4f3d
00000010: dd1c 88bd e084 97bd a9dc 323d 2a49 563d
00000020: 437d 85bc e8d5 833d 4a94 433c 855d 05bd
00000030: e3a3 983d 1ad9 ac3d 6e45 e13c 58c5 61bd
00000040: c091 a3bd f56a 7c3d b9a3 a4bb f35e 0ebb
00000050: 62fa 72bd 8b11 68bb 3531 b63d b8e7 00bd
00000060: 688c e83c 65dc 483d 736d 38bd 6a5f fabc
00000070: 261b babc f4e5 3abd 142a a43c 7185 573d
00000080: f32e 0cba f5f4 92bd 5147 983c 3987 893c
00000090: 8a07 98bd 02f9 8b3d d79e 47bc b11d 553d
000000a0: ec37 323d 3b09 85bd 9b38 cbbb 31a5 62bd
000000b0: c747 153d 3d4e 8b3c bd9f aa3d 7b27 ac3d
000000c0: 2d4d ecbc 8fc8 8ebd 6f8b a43d 9a8e 8fbd
000000d0: de2e 53bd d9a3 eabc 4d82 483d d2e0 0b3d
000000e0: 1ae5 19bd 09ab 6d3d e92d a9bd 10e5 4e3d
000000f0: d1b9 4abd 0735 d9bb 3b95 8a3d 78c2 e93b
00000100: c41f 19bc 7841 0ebd c224 3dbd fcc6 66bd
00000110: 5a83 723c c003 acbd 15a5 5cbc 5815 253d
00000120: 2396 9dbd 4a97 29bd 7815 873d c7be 9fbd
00000130: b63a 0e3c 62fd 09bd 0956 383c 05be 57bd
00000140: ed29 4fbd cb96 92bc b1ec 6e3d 180d a1bb
00000150: 4a57 7bbd 1a0d 083d fd44 b3bd 4c49 acbd
00000160: 6706 343c e602 97bd 601b babd 6496 0f3d
00000170: 033e 92bc aac5 973c 35a6 a73d 237b cbbd
00000180: 3ddd 7bbd abe2 143d bf0c 38bd 0644 d3bc
00000190: 36d8 5b3c 075b bc3c 9c75 99bd 5cf5 033b
000001a0: 7946 613c 99ed 8dbd 7e87 b53d 6629 99bd
000001b0: 3ec8 9dbd 936c 17bd 4297 93bd ec47 7d3d
000001c0: a521 ca3c f6ce 1e3d 6037 38bd 1b0d c1bd
000001d0: 0c24 143d a741 58bd 2612 d7bc 6ec7 b23b
000001e0: cd00 163d dae1 1d3d 4730 873d b16d bb3c
000001f0: 5309 393d ed1d 51bc 08b0 8a3d a432 c3bc
00000200: 7457 4a3d b036 d7bc 9534 683b c161 91bd
00000210: 35fe 383c 4b45 6bbd 9ea2 1fbd 2a90 a3bd
00000220: 784b 283d f289 243d 2679 493d 0723 923d
00000230: 16ee 61bd 1426 733d a644 833d e2ca d4bb
00000240: 5e1f 0bbd 2ca4 293d 3bb8 433d 9a2d 9ebd
00000250: 24e7 b8bd 29a9 c43c 637f d23c 5b58 d4bc
00000260: 1d29 c6bd bb23 2ebc effc 453c c208 053b
00000270: e232 9ebc d064 b4bc ad87 85bd f859 40bd
00000280: f8d2 8f3d eefb 00bd 9937 e9ba 33ae b03d
00000290: 22cf 843d 391e 913d 4020 a0bd c474 f7bc
000002a0: 7fe9 793d 835d a53d f5fa a4bd 8b6e 96bd
000002b0: ccf9 9dbd c487 253d aff6 cd3a b378 82bd
000002c0: e331 a6ba 1f99 1c3d 2063 853c 7942 91bd
000002d0: 5b3e 0bbd 890c e63c a930 b93d a1ab 0b3d
000002e0: f5c2 0ebd a47a aebd 94d5 903d 9a36 bdbc
000002f0: 650e e4bc 3eb6 803b 1141 17bd 879e b4bd
00000300: a63e 663d 688d 963d 60dd 14bd f436 7e3d
00000310: 756a fd3c 5093 823c 0e0d 6f3d 222f 98bd
00000320: 5393 8e3d 2af5 96bd d0cd ae3c 588f ad3c
00000330: 7d29 51bd 54f3 9abd 344d 27bc a00a e1bb
00000340: ec48 89bc f94f 94bd 1a45 eabc a3e6 5ebd
00000350: 198a 14bd bcad 873b 33c7 70bd fa86 8f3d
00000360: dec0 b3bc b3b8 8cbd 6f41 3bbd 508e df3b
00000370: 4a93 903d b890 5ebd 8c8a 7cbd b51f 5f3d
00000380: 45bf 523d 0e5c 46bd a7d9 583d ffaf 6c3d
00000390: 9bd3 ffbc bf94 37bd f182 a63d 2f8f 743d
000003a0: 2c6f 85bd 208d 4fbd 9ce4 393d 43d6 f2bb
000003b0: e70a 543d 2c81 2fbd 7a24 8fbc 0510 8b3b
000003c0: 2e05 283d 1863 af3d 292e 15bd a614 86bc
000003d0: 85c4 543d 30bd 83bb 3b96 bc3c 4885 093d
000003e0: d005 a5bd e89b 4abd 0912 6fbd 78e8 acbd
000003f0: feed bcbd 2508 5b3d ee6b 4c3b 19df 963c

net.2.bias f4 [10]
-0.012594721 -0.04557448 -0.03762117 -0.007669284 -0.065916166 -0.007267305 0.052929413 0.05745758
0.04946854 -0.023308063
00000000: 175a 4ebc 4eac 3abd a818 1abd 9e4e fbbb
00000010: 0eff 86bd 9322 eebb 83cc 583d a458 6b3d
00000020: 869f 4a3d 8df0 bebc
